Model: "sequential_1"
_________________________________________________________________
Layer (type)                 Output Shape              Param #
=================================================================
conv2d_3 (Conv2D)            (None, 26, 26, 32)        320
_________________________________________________________________
max_pooling2d_3 (MaxPooling2 (None, 13, 13, 32)        0
_________________________________________________________________
dropout_3 (Dropout)          (None, 13, 13, 32)        0
_________________________________________________________________
conv2d_4 (Conv2D)            (None, 11, 11, 64)        18496
_________________________________________________________________
max_pooling2d_4 (MaxPooling2 (None, 5, 5, 64)          0
_________________________________________________________________
dropout_4 (Dropout)          (None, 5, 5, 64)          0
_________________________________________________________________
conv2d_5 (Conv2D)            (None, 3, 3, 128)         73856
_________________________________________________________________
max_pooling2d_5 (MaxPooling2 (None, 1, 1, 128)         0
_________________________________________________________________
dropout_5 (Dropout)          (None, 1, 1, 128)         0
_________________________________________________________________
flatten_1 (Flatten)          (None, 128)               0
_________________________________________________________________
dense_2 (Dense)              (None, 128)               16512
_________________________________________________________________
dense_3 (Dense)              (None, 25)                3225
=================================================================
Total params: 112,409
Trainable params: 112,409
Non-trainable params: 0
_________________________________________________________________
Epoch 1/10
215/215 [==============================] - 18s 85ms/step - loss: 2.6991 - acc: 0.1777 - val_loss: 1.6358 - val_acc: 0.4967
Epoch 2/10
215/215 [==============================] - 17s 79ms/step - loss: 1.2809 - acc: 0.5718 - val_loss: 0.8795 - val_acc: 0.6899
…
215/215 [==============================] - 17s 78ms/step - loss: 0.2225 - acc: 0.9277 - val_loss: 0.2478 - val_acc: 0.9096
Epoch 9/10
215/215 [==============================] - 17s 77ms/step - loss: 0.1829 - acc: 0.9397 - val_loss: 0.1874 - val_acc: 0.9339
Epoch 10/10
215/215 [==============================] - 20s 91ms/step - loss: 0.1547 - acc: 0.9478 - val_loss: 0.1905 - val_acc: 0.9324
The time taken to execute is 171.77 seconds.


Model: "sequential_2"
_________________________________________________________________
Layer (type)                 Output Shape              Param #
=================================================================
conv2d_6 (Conv2D)            (None, 26, 26, 32)        320
_________________________________________________________________
conv2d_7 (Conv2D)            (None, 24, 24, 32)        9248
_________________________________________________________________
max_pooling2d_6 (MaxPooling2 (None, 12, 12, 32)        0
_________________________________________________________________
conv2d_8 (Conv2D)            (None, 10, 10, 64)        18496
_________________________________________________________________
conv2d_9 (Conv2D)            (None, 8, 8, 64)          36928
_________________________________________________________________
conv2d_10 (Conv2D)           (None, 6, 6, 64)          36928
_________________________________________________________________
max_pooling2d_7 (MaxPooling2 (None, 3, 3, 64)          0
_________________________________________________________________
conv2d_11 (Conv2D)           (None, 1, 1, 128)         73856
_________________________________________________________________
conv2d_12 (Conv2D)           (None, 1, 1, 25)          3225
_________________________________________________________________
flatten_2 (Flatten)          (None, 25)                0
_________________________________________________________________
dense_4 (Dense)              (None, 25)                650
=================================================================
Total params: 179,651
Trainable params: 179,651
Non-trainable params: 0
_________________________________________________________________
Epoch 1/10
215/215 [==============================] - 40s 188ms/step - loss: 1.4772 - acc: 0.5365 - val_loss: 0.8180 - val_acc: 0.7157
Epoch 2/10
215/215 [==============================] - 37s 173ms/step - loss: 0.1351 - acc: 0.9563 - val_loss: 0.7998 - val_acc: 0.8175
…
215/215 [==============================] - 37s 173ms/step - loss: 6.9356e-05 - acc: 1.0000 - val_loss: 0.9625 - val_acc: 0.8717
Epoch 9/10
215/215 [==============================] - 38s 177ms/step - loss: 5.3583e-05 - acc: 1.0000 - val_loss: 0.9969 - val_acc: 0.8713
Epoch 10/10
215/215 [==============================] - 37s 173ms/step - loss: 4.1687e-05 - acc: 1.0000 - val_loss: 1.0076 - val_acc: 0.8735
The time taken to execute is 388.05 seconds.



Model: "sequential_3"
_________________________________________________________________
Layer (type)                 Output Shape              Param #
=================================================================
conv2d_13 (Conv2D)           (None, 26, 26, 32)        320
_________________________________________________________________
max_pooling2d_8 (MaxPooling2 (None, 13, 13, 32)        0
_________________________________________________________________
dropout_6 (Dropout)          (None, 13, 13, 32)        0
_________________________________________________________________
conv2d_14 (Conv2D)           (None, 11, 11, 64)        18496
_________________________________________________________________
max_pooling2d_9 (MaxPooling2 (None, 5, 5, 64)          0
_________________________________________________________________
dropout_7 (Dropout)          (None, 5, 5, 64)          0
_________________________________________________________________
flatten_3 (Flatten)          (None, 1600)              0
_________________________________________________________________
dense_5 (Dense)              (None, 25)                40025
=================================================================
Total params: 58,841
Trainable params: 58,841
Non-trainable params: 0
_________________________________________________________________
Epoch 1/10
215/215 [==============================] - 15s 68ms/step - loss: 1.7421 - acc: 0.5053 - val_loss: 0.8635 - val_acc: 0.7373
Epoch 2/10
215/215 [==============================] - 15s 71ms/step - loss: 0.4500 - acc: 0.8671 - val_loss: 0.4969 - val_acc: 0.8373
…
