Model: "sequential_6"
_________________________________________________________________
Layer (type)                 Output Shape              Param #
=================================================================
conv2d_21 (Conv2D)           (None, 28, 28, 32)        320
_________________________________________________________________
max_pooling2d_16 (MaxPooling (None, 14, 14, 32)        0
_________________________________________________________________
conv2d_22 (Conv2D)           (None, 14, 14, 64)        18496
_________________________________________________________________
max_pooling2d_17 (MaxPooling (None, 7, 7, 64)          0
_________________________________________________________________
conv2d_23 (Conv2D)           (None, 7, 7, 128)         73856
_________________________________________________________________
max_pooling2d_18 (MaxPooling (None, 3, 3, 128)         0
_________________________________________________________________
flatten_6 (Flatten)          (None, 1152)              0
_________________________________________________________________
dense_10 (Dense)             (None, 512)               590336
_________________________________________________________________
dense_11 (Dense)             (None, 24)                12312
=================================================================
Total params: 695,320
Trainable params: 695,320
Non-trainable params: 0
_________________________________________________________________
Epoch 1/15
858/858 [==============================] - 22s 25ms/step - loss: 2.4532 - acc: 0.2318 - val_loss: 1.3888 - val_acc: 0.5045
Epoch 2/15
858/858 [==============================] - 21s 24ms/step - loss: 1.2995 - acc: 0.5621 - val_loss: 0.7157 - val_acc: 0.7422
…
